svhn_model/model_svhn_bo1.pth (torch, 935243 bytes, 26 tensors)

weight f4 [16, 3, 3, 3]
00000000: e675 80ba 6e95 b83e 423d de3e 3df5 3dbe
00000010: 5108 57bd 7f79 1c3e 5a3a 78be 0f3d b3be
00000020: 6da6 9fbd 68a6 223d 7ea7 983e 6232 9c3e
00000030: 1ebc a9bd e25b ff3d d081 503e 283d f2be
00000040: f464 a3be 5ea8 e7bd 6b28 8d3c ac00 ec3c
00000050: b04e 9f3e 54bd bf39 7f97 a23d 1197 0abd
00000060: 238c b8be c055 80bd 2ddd b3bd 06d0 a0be
00000070: 77e3 93be b15e 53be 7b56 c93d 61aa 5e3e
00000080: 460b 383d 5c2e 483e ecdb a63e b633 c03e
00000090: 85c1 cebe 93e7 66be baec 3abe e7f9 0ebe
000000a0: 7c25 36bd aa90 0d3d 828f 6b3e 8127 be3e
000000b0: 5390 d03e 7a0f 47be 9ebf bfbd ef35 29be
000000c0: 88bf 4fbe 143c 2c3c 8258 553c 7e41 a63b
000000d0: 8c51 b5ba c357 2d3e f62c 74be 5e75 cbbd
000000e0: 0496 d43e ef14 a3be c563 c63c 71b2 a63e
000000f0: c2df 98be 5a63 15bd f59b 8e3e e09b c3bd
00000100: bcf3 4e3e a2ad 053f c61e a6be b89f 32be
00000110: cf66 9a3e c2d5 a8be 0a60 7abe 1e36 623e
00000120: 6dbf 6dbe cde8 f53c 8636 b13e 6686 7cbe
00000130: 135e 573d 6543 723d d37c 33be 752c c4bc
00000140: 89fe 2b3e e6d3 3d3e 0e6d a93e e9e9 823e
00000150: 2e22 11be 72d1 a43c d44e 053d 4c1a d4bc
00000160: d83d 92be 9554 b7be 4a46 bc3e f787 963e
00000170: d95e c53e 582e 8ebd 9c59 0e3a 6c25 2ebe
00000180: 36a4 5abe ba8f a5be c156 84be 4685 433e
00000190: 4fce a43d 7fd4 a33e 4e3b 5d3d 1895 8dbc
000001a0: d5e9 a7bc 3667 30be c43c 72be bbd5 64be
000001b0: c2e4 ac3d 5453 7c3d a848 573d 2747 a2bc
000001c0: c48a cabd 7c3f d7bd 9113 503d 760c 00bd
000001d0: d94f 113d 25ae 883d 2a7e 853c 173b 6e3d
000001e0: bdcc 43bd 2c3c efbc 661e 82bd 4da0 f13c
000001f0: 28e0 d03b c223 d4bc 5ea0 d43d dd06 823d
00000200: 7001 613d e82e 74bd 89d7 b3bd e956 9abd
00000210: d31d 00bd 48ca 02bd c5a9 553c 8a39 863e
00000220: ea07 8b3b d665 153d aef3 aa3e 8755 41bd
00000230: 9eda 81be bfe4 173e 76cd 00be bd18 c8be
00000240: ddf3 a93e ec17 763e 71cb 44be a385 813e
00000250: 7975 1ebc 889d 54be d7ca 8d3e d432 16be
00000260: 4072 09bf 26e5 6f3e 9bfd c23d 7c0d 21be
00000270: 0a00 833e 2658 fe3d 608a 1dbe 3bf1 20bd
00000280: c4aa f6bc e7fd 81be 81d0 dfbc 8318 10be
00000290: ffb5 a43e fc0a b8bd 9fea 2dbe ce25 69bc
000002a0: cc98 91bd 0c57 5fbe 0255 86bb 9958 eabd
000002b0: b902 8f3d 9b41 003f 9d15 d7bd 767d 93be
000002c0: 46c5 b3bc b056 523d 718b 32be 38ed 01be
000002d0: 49f8 b43d 6933 e3bc eb80 ce3e 6173 f13b
000002e0: 53fc 3fbe 9f3e 173e 4161 83bc 6ec7 3dbe
000002f0: ef12 61bc 7f27 813e 8499 553d 4732 bcbe
00000300: c844 913e f163 a83d 8337 c3be 293f 9a3d
00000310: 49ff bb3d 99a7 37be 06b9 733e 34fc fd3d
00000320: d050 84be d148 d83d 72c3 283e d45b a7be
00000330: 1350 d73e 2c23 cbbd ae99 b8be e415 203e
00000340: 0e08 8a3d 4962 1dbe ad5a 733e cd55 0ebe
00000350: 9619 69be fb86 673e 8936 0a3e 0ad0 8bbe
00000360: 0a99 9abd d41f 89bd d464 1ebc 2ef4 39be
00000370: 83b1 24be de92 18be 0768 1cbe 2f1c 02be
00000380: 6e27 3dbe c212 a6bd cbbe a7bc ec56 ad3d
00000390: 58c7 4cbe 6205 0dbe 6611 a2bd ba0c 27be
000003a0: 8b62 0abe 737e 8bbd 862a af3d f6e4 f73d
000003b0: c654 013e dd3d e33a 4e7c 223d 5d47 8d3d
000003c0: 8996 453d e935 b73d eb14 a43d 101e b0be
000003d0: 6f7c cfbe d131 50be efd9 0f3d 9046 19bc
000003e0: 54d6 243e dba9 b43d 6ac4 b73e 5d8d 9c3e
000003f0: 70eb 8fbe fc8b 78be ff4e aebe 15a0 03be
-0.0009800761 0.36051506 0.4340611 -0.18550582 -0.052498166 0.15280722 -0.2424101 -0.35007522
-0.07795415 0.03970948 0.29815286 0.3050719 -0.08287834 0.12468697 0.2036202 -0.47312284
-0.3191296 -0.1131141 0.017231187 0.028808914 0.3111472 0.0003657142 0.07939052 -0.033835474
-0.36044416 -0.062663555 -0.0878242 -0.3140871 -0.2888448 -0.2064159 0.09830948 0.21744682
0.044932626 0.19548935 0.32589662 0.37539452 -0.4038202 -0.22549276 -0.18254367 -0.13962518
-0.04446934 0.03456179 0.23003963 0.37139514 0.4073511 -0.19439498 -0.0936272 -0.1652448
-0.20287907 0.010512371 0.01302159 0.0050737252 -0.0013833507 0.1692801 -0.23845276 -0.099344954
0.41520703 -0.3185191 0.024217496 0.32558015 -0.29858214 -0.036471702 0.2785336 -0.09551215
0.20210165 0.5221807 -0.32445353 -0.1744374 0.30156562 -0.32975584 -0.24450698 0.22090957
-0.23217554 0.030018235 0.3461191 -0.24660644 0.05257995 0.059146304 -0.17528085 -0.02394698
0.16796316 0.18537864 0.33091015 0.25569084 -0.14173195 0.020119403 0.03254588 -0.025891446
-0.28562808 -0.35806718 0.36772376 0.29400608 0.38548926 -0.06942433 0.0005430223 -0.17006463
-0.21351704 -0.32336217 -0.25847438 0.19093809 0.08047163 0.3199806 0.054011635 -0.017283008
-0.020497242 -0.17226872 -0.23655993 -0.22347157 0.084420696 0.061602905 0.052559525 -0.019809319
-0.09889749 -0.105101556 0.05079991 -0.031261884 0.03547654 0.066738404 0.016295511 0.05816182
-0.047802676 -0.029203497 -0.06353454 0.029495383 0.0063743778 -0.025895957 0.1038215 0.06348965
0.05493301 -0.059615046 -0.087813444 -0.07536108 -0.031278443 -0.03193119 0.0130409645 0.26215774
0.004242887 0.03647407 0.33389038 -0.047200706 -0.25362104 0.14833353 -0.12578377 -0.39081374
0.33193865 0.24032563 -0.19218232 0.2529727 -0.009671562 -0.20763218 0.27693817 -0.14667827
-0.53689957 0.23427257 0.09521028 -0.157278 0.25585967 0.12419157 -0.15384817 -0.039292555
-0.030110724 -0.25389025 -0.027321102 -0.1407185 0.32170102 -0.0898647 -0.16984032 -0.014230205
-0.07109222 -0.2181055 -0.004099489 -0.1144268 0.06982941 0.50100106 -0.10502169 -0.28806657
-0.021944653 0.051352203 -0.17436005 -0.12688148 0.08836419 -0.027734475 0.40332732 0.0073684906
-0.18748598 0.14769982 -0.016037585 -0.18533108 -0.013737424 0.25225446 0.052148357 -0.3675711
0.28372788 0.08222187 -0.3812829 0.07531578 0.09179551 -0.17935027 0.2380105 0.124016196
-0.25842905 0.105607636 0.16480806 -0.32687247 0.4205328 -0.09918818 -0.36054748 0.1563335
0.067398176 -0.15369524 0.23765059 -0.13899918 -0.22763667 0.22610085 0.13497366 -0.2730716
-0.07548721 -0.06695524 -0.009667594 -0.18159553 -0.1608334 -0.14899775 -0.15274058 -0.12706064
-0.18472072 -0.081090465 -0.02047672 0.08463845 -0.19997919 -0.13771585 -0.07913475 -0.16313449
-0.13514154 -0.06811228 0.085530326 0.12104218 0.12629995 0.0017337162 0.039669327 0.06898377
0.048239265 0.089458294 0.08011802 -0.34397936 -0.40524623 -0.20331503 0.035119947 -0.009355202
0.16097385 0.0882146 0.3589204 0.30576602 -0.28109312 -0.2427215 -0.34044644 -0.12854035

bias f4 [16]
00000000: efa9 ff36 fd5c 0c36 2f62 96b5 f017 8b36
00000010: 2742 a6b3 0ff1 02b6 10a3 3935 8a36 ae36
00000020: b912 0eb5 3749 b1b5 13da 5fb6 44fb 1db7
00000030: cb20 83b4 c0b9 f634 bdd1 3634 6311 d5b4
7.619375e-06 2.0915752e-06 -1.1204446e-06 4.1453095e-06 -7.7420104e-08 -1.9511824e-06 6.915516e-07 5.1919533e-06
-5.292637e-07 -1.3208836e-06 -3.3356525e-06 -9.416432e-06 -2.4424511e-07 4.5956222e-07 1.7026373e-07 -3.9686992e-07

weight f4 [16]
00000000: 07b5 573f 3082 d33e 8d85 443f 8d32 a03f
00000010: 2102 533e 128d 643f 07d9 b73e 0d2d 5e3f
00000020: f064 cc3e 1cd2 423f 2ed8 8d3f 49a4 773f
00000030: e2d7 513f 22f2 0c3f 938f 363e 8253 523f
0.842606 0.41310263 0.7676628 1.2515427 0.20606281 0.89277756 0.35907766 0.8678749
0.3992076 0.7610185 1.1081598 0.96735054 0.81970036 0.55056965 0.17828207 0.8215867

bias f4 [16]
00000000: 4bdb b9bc 55bf 113d 0ab7 623e e69f e13e
00000010: bec9 34be 606c 683e b4cf f63d c907 303e
00000020: 4116 1ebe c5a6 503e 4647 0e3e c674 603e
00000030: 3358 fcbe 1d99 463e 7d57 09bc ce19 f8be
-0.022687575 0.03558286 0.22140136 0.44067305 -0.17655084 0.22697592 0.12051335 0.1719047
-0.15438177 0.20376118 0.13894376 0.21919546 -0.4928604 0.19394346 -0.008382675 -0.48457187

running_mean f4 [16]
00000000: 6474 383c 4625 d73c 808e bbbb c355 933a
00000010: a750 5d3b a4b7 f1bb 9b48 2c3c 6597 a739
00000020: 51cd 183d 3244 2bbc 0583 37bb c610 0dbb
00000030: 80f8 303c b7bd c83a fd51 0f3d 44dc 34bc
0.011258218 0.02626289 -0.0057237744 0.0011240769 0.0033769996 -0.007376628 0.010515357 0.0003196552
0.03730518 -0.010453271 -0.0028001678 -0.002152489 0.0108014345 0.0015315328 0.0349903 -0.011038844

running_var f4 [16]
00000000: 8d10 e63f 6572 ca3f 4c10 2740 5be9 d43f
00000010: 40a8 903d 6d94 0740 f7a2 633f 5045 0840
00000020: 0c53 ab3f c338 0040 08cf 0c40 7445 c53f
00000030: bab3 cb3f ddc1 d93f 66b7 583f b4c6 0940
1.7973801 1.581616 2.6103697 1.6633714 0.07063341 2.1184342 0.8892054 2.1292305
1.3384719 2.0034645 2.2001362 1.541182 1.5914223 1.7012287 0.84654844 2.1527529

weight f4 [32, 16, 3, 3]
00000000: deb6 b7bd f653 0cbd f2de 573e e0be 1f3e
00000010: 06b6 593e 6cd3 173e 3ea3 6abc 75a4 1ebe
00000020: 3f8f 75bd bc6e f8bc 550f 4e3d ac32 4ebd
00000030: 7d86 e8bd 2272 27be d9a3 e8bd 0ca3 d4bd
00000040: a67f 3d3d c69b 613b 520d 2e3c 2432 41bd
00000050: 04ca 30be 3994 cabd 898c f4bd f418 51bd
00000060: c10d d5bd 1764 10bd 4222 263e 05d3 1cbe
00000070: 9e7d 84bc 2f55 6c3e ec69 003f f265 1e3f
00000080: 4ff7 4d3e 17f4 4d3e fcc0 b63d de7a 0e3d
00000090: 5262 91bc 361d d5bc f3be dabc 81f9 2fbd
000000a0: 7ba8 32bd 45db 20bc c4a9 cabc 8c1c c3bc
000000b0: b548 a23b 3601 1e3b e990 5c3c 67b2 c53d
000000c0: 4071 453e 1f01 cf3d 21c6 283c 758c 8b3d
000000d0: 087f 36be ea9f d5bd 44fa e63c 7d65 3bbd
000000e0: fb04 893c b3f3 043e 041b e93d dd2f 673d
000000f0: ac9f c33d df4b 893d 2a6c f43c 500c d9bc
00000100: 701f 55bd 9a52 3b3d 2555 083d e483 f1bd
00000110: 9519 863c 6523 883d ac70 b3bd 0f33 cbbd
00000120: b926 e4bd 14f8 4bbe c65c 04be 3396 b2bc
00000130: c155 403c b410 e93c 40ca b33d 5cb6 ca3c
00000140: 0478 ab3d 7c4b 0bbc 6d7e 603e 5d0e a7bc
00000150: 05fa 80be 8767 cdbe d4a9 d1bd beda 95bd
00000160: d16e bf3d ab80 053b 4f48 313d 8a05 9abd
00000170: 212f bbbe 3b40 8abe 90fe 04bf aae5 06bd
00000180: c4e7 2cbe 6369 fd3d 54b0 9d3e d43d aebd
00000190: efa3 303e d348 c43d 88be c6be 1424 ffbe
000001a0: 744e 90bd ba6f 2ebe bf30 1bbd 66b4 e8bd
000001b0: 84e3 3fbe ae59 58be 2e7a 52be 9700 98be
000001c0: 0fbe 8bbe f17e 70be 456c 23be 89bf 09be
000001d0: 4dfa 11bc f6e4 c6bd 9b56 063d 200a df3d
000001e0: 7262 7cbe b082 a3be 6dba c2bd 0cd2 dbbd
000001f0: e113 e73d b643 12bd 3b86 b5bd e7cc 4fbd
00000200: cf1d 523c 6f11 8dbd 761e f4bc 66be 83bc
00000210: a768 fabd e804 0fbe c317 4dbd fb15 dc3d
00000220: 50dc 843d 3a03 dabc b679 833c 4d0f a2bd
00000230: 4068 cb3d 09dc d8bd 20b5 88bc b08a f73d
00000240: b659 aeba 49a6 92bd 51bd 9abd 9279 7a3e
00000250: 3494 3a3e 2552 063e 9e17 773b e23d 6fbe
00000260: 2aa5 e4bd 503c 8bbc cdca 063d 1cf0 8e3d
00000270: d0c8 493c ef41 913b d83f 0fbd 86e1 bf3d
00000280: ce8a 843d 65f0 1b3c 7f28 1a3e 450c 85bd
00000290: 7af1 afbd 49c2 f63d 9041 3fbe 255f 32be
000002a0: 1a73 1cbe 382f b6be f14b 5fbe 60ad cbbc
000002b0: 362e 85bd 7155 803d da88 9a3e f362 e33e
000002c0: a752 053f 2a3a 64be d6c2 0fbe adbe 6cbd
000002d0: 3c86 2f3d 5153 673c cf33 143c 4e6b 3abd
000002e0: 8beb 5ebd d606 40bd 52be a8bb d264 9bb9
000002f0: a50d 423c 1be6 e73d 5736 2ebe 32a7 80bd
00000300: 6212 c23d 56e9 35be 1364 03bd d53f 5dbd
00000310: 5895 7fbe 9036 98bd d08f 8d3c 159b 81bd
00000320: 1684 82bd ffea ec3d 4833 963c d13d 3d3d
00000330: ac7b 9dbc 0aaf 0ebe e33b f6bd 10d5 e63d
00000340: 5d1f 5dbe 8acf 47be bed9 1b3d e65b 94be
00000350: b45d 54be a894 213c da37 76be 899c b0bc
00000360: 5d5a 143d 2e57 723c 7f49 353c 4729 113d
00000370: 28de 343c 1bfb 2a3d f152 ed3c 6e71 ca38
00000380: acab 69bc b715 97bd 980a ca3d 0c88 b83d
00000390: 0d0f 343b 4c2b 37bd 86fb f3bd 8b54 0c3e
000003a0: e7c4 343e a236 0e3e ad05 223e 855b e1bd
000003b0: de9f 17be 42f8 0ebd df74 e8be f541 a1be
000003c0: 20d2 2e3d 7069 6cbe 3e86 9dbd 208c 7fbd
000003d0: 6bd6 2d3d 7b56 253b ebac d33c c4d7 0bbe
000003e0: 8f61 6ebe 6e38 173e c551 fb3d d52e 063e
000003f0: 1d01 a5bd ef32 14be 09a5 00be 6686 7dbe
-0.08970426 -0.03425976 0.2108114 0.15600157 0.21260843 0.14826745 -0.0143211465 -0.15492423
-0.059951063 -0.03032624 0.05030759 -0.050341293 -0.113537766 -0.16352132 -0.113593765 -0.10382661
0.046264313 0.0034425124 0.010623293 -0.04716696 -0.17264563 -0.098915525 -0.119408675 -0.051049188
-0.10403014 -0.035251703 0.16224006 -0.15314873 -0.01617318 0.2307937 0.50161624 0.61874306
0.20113872 0.20112644 0.089235276 0.034785144 -0.017747078 -0.026014905 -0.02670238 -0.042962555
-0.043617707 -0.009817903 -0.024739154 -0.023817323 0.004952515 0.0024109608 0.013462284 0.09653168
0.19281483 0.10107636 0.010301144 0.068138994 -0.17821896 -0.10430892 0.028195508 -0.045751084
0.016726008 0.12983589 0.11382106 0.05644213 0.09551939 0.067039244 0.029836733 -0.026495129
-0.052031934 0.045733072 0.033284325 -0.11792734 0.01636962 0.06647376 -0.08761725 -0.09921848
-0.11140198 -0.19918853 -0.12926015 -0.021800136 0.011739195 0.028450347 0.087788105 0.024745159
0.083725005 -0.008501884 0.21923228 -0.020392591 -0.2519075 -0.40118048 -0.1023747 -0.073171124
0.093473084 0.0020370882 0.04328185 -0.07520588 -0.36559394 -0.2700213 -0.5195093 -0.03293387
-0.16885287 0.123736165 0.3079859 -0.085078865 0.17250036 0.095842026 -0.3881724 -0.49832213
-0.07046214 -0.17034808 -0.037888285 -0.11362533 -0.18739134 -0.2112796 -0.2055442 -0.2968795
-0.2729344 -0.23485924 -0.1595927 -0.13451971 -0.008909774 -0.097116396 0.032797437 0.10890603
-0.24646929 -0.31935644 -0.09508214 -0.10733423 0.112830885 -0.035709105 -0.08863493 -0.05073252
0.01282449 -0.06888091 -0.029799681 -0.016082 -0.12226992 -0.13966715 -0.05007149 0.1074638
0.06487334 -0.026612867 0.016049247 -0.07913075 0.099319935 -0.105888434 -0.01668793 0.120869994
-0.0013301882 -0.071606226 -0.075556405 0.24460438 0.18220598 0.13117273 0.0037703286 -0.2336345
-0.11164315 -0.016996533 0.03290825 0.06979391 0.012315944 0.0044329087 -0.034972996 0.09369187
0.064717874 0.009517764 0.1505451 -0.06496481 -0.0859098 0.12048776 -0.18677354 -0.17419107
-0.15278283 -0.355829 -0.21806313 -0.024862945 -0.06502955 0.06266297 0.30182534 0.4441143
0.5207924 -0.22287813 -0.14039168 -0.05779903 0.042852625 0.014118985 0.009045555 -0.04551249
-0.05442385 -0.04688152 -0.005149641 -0.0002963902 0.011844073 0.11323186 -0.17012917 -0.0628189
0.094761625 -0.17764792 -0.03207786 -0.054015953 -0.24959314 -0.07432282 0.01728049 -0.06328408
-0.0637285 0.115682594 0.018335 0.04620153 -0.01922401 -0.1393396 -0.12023141 0.11271107
-0.21593995 -0.19512764 0.038049452 -0.28976363 -0.2073887 0.009862103 -0.24044743 -0.021559017
0.03621899 0.014791293 0.011064886 0.035439756 0.011039294 0.04174338 0.028970214 9.6532385e-05
-0.014262121 -0.07377189 0.09865302 0.09010324 0.0027474791 -0.044719025 -0.11913209 0.13704126
0.17653237 0.13888028 0.15822478 -0.11003784 -0.14807078 -0.034904726 -0.45401666 -0.31495634
0.04268086 -0.23087096 -0.0769162 -0.062389493 0.042440813 0.0025228548 0.02583929 -0.13656527
-0.23279403 0.1476762 0.12271456 0.13103803 -0.08056853 -0.14472555 -0.12562956 -0.247583

bias f4 [32]
00000000: df8c 48b5 4e91 3d35 3d2c 9a35 b559 c2b4
00000010: 01dc 1e35 66e3 a835 dcd5 79b5 32a4 6035
00000020: 3aa5 6435 e6a1 e734 80aa 17b3 a6d0 6eb4
00000030: b761 3535 a21b 7ab5 33ce 8736 73e7 76b3
00000040: 7552 5d35 15c1 4fb5 2695 1436 a768 82b5
00000050: 92c6 bd33 79fd 0035 5e6c 9635 21e4 0ab4
00000060: a872 b8b5 2acf 2e36 b1d8 6335 49a5 23b5
00000070: e532 0835 9a12 57b4 24be 81b5 1061 86b5
-7.47108e-07 7.061943e-07 1.1486769e-06 -3.6200586e-07 5.9179735e-07 1.2583157e-06 -9.3070935e-07 8.368544e-07
8.5177055e-07 4.31449e-07 -3.5312496e-08 -2.2241383e-07 6.756995e-07 -9.317247e-07 4.0473183e-06 -5.748684e-08
8.2448906e-07 -7.739448e-07 2.2140534e-06 -9.716213e-07 8.837118e-08 4.8052567e-07 1.120741e-06 -1.2935244e-07
-1.3742438e-06 2.6048606e-06 8.487942e-07 -6.0962753e-07 5.073801e-07 -2.0030203e-07 -9.666587e-07 -1.0012027e-06

weight f4 [32]
00000000: fc1a 603f d672 453f d0ca 413f 6700 483f
00000010: 832d 343f b18f 583f 117a 473f 36bd 6c3f
00000020: d35e 233f 07de 443f 0482 043f 7d88 463f
00000030: c205 743f eacb 3c3f 476c 793f 9767 333f
00000040: 7c4e 573f 8e5e 523f a5fc 483f 06c1 0d3f
00000050: 3919 e43e 5310 543f 2d43 333f 521b 543f
00000060: 644a 733f e897 423f ba0a 0d3f f7f3 1a3f
00000070: 0c19 1e3f dd51 453f d85c 4a3f 7255 213f
0.87541175 0.7712835 0.7570009 0.78125614 0.70381945 0.84594256 0.77920634 0.9247621
0.63816565 0.76901287 0.5176089 0.77552015 0.95321286 0.7374865 0.97430843 0.7007994
0.8410413 0.8217553 0.78510505 0.55372655 0.44550493 0.8283741 0.7002438 0.8285419
0.95035386 0.7601304 0.5509449 0.6052851 0.6175697 0.7707804 0.7904792 0.63021004

bias f4 [32]
00000000: 4ba3 93be 684b 98be 8c07 d2be 68ea 0abf
00000010: 90e8 94be 65a0 fdbe 06db e9be 735f 3fbf
00000020: 88b9 00bf f86c c2be b623 79be 6512 abbe
00000030: 5e25 c7be 59e8 eabe e979 31bf 67fc d2be
00000040: d427 35bf ac70 04bf 38ab 02bf 2633 00be
00000050: efa4 51bd cead 06bf 87ee cebe 3df5 e6be
00000060: 6c86 05bf d7d7 e6be 3617 e6be 01d2 03bf
00000070: 4ad8 5cbe 5b6a e6be aa5f 8bbe f5a1 d7be
-0.2883552 -0.2974503 -0.41021383 -0.54263926 -0.2908368 -0.49536434 -0.45674914 -0.7475502
-0.502831 -0.37973762 -0.24330029 -0.3341247 -0.38895696 -0.45880392 -0.69326645 -0.41208193
-0.707639 -0.51734424 -0.5104251 -0.12519512 -0.051182684 -0.52608955 -0.40416357 -0.45108977
-0.52158237 -0.45086548 -0.44939584 -0.51492316 -0.21566883 -0.45003018 -0.27221423 -0.4211575

running_mean f4 [32]
00000000: 2e51 11bf 80e8 9ebf abd0 1dc0 377e 04c0
00000010: 7306 b8bf 983d c4bf f529 3dc0 b264 33c0
00000020: fb8c 07c0 7763 1dc0 52aa f23d ece4 a0bf
00000030: 0b01 cfbf 1ea6 2ac0 461f 2cc0 e545 e9bf
00000040: 570b 03c0 26f1 c1bf 74db 19c0 1360 bb3f
00000050: 8782 76bf 7de1 0bc0 89b0 c1bf 0239 d2bf
00000060: ac75 ddbf d952 01c0 e68d c3bf e86d f3bf
00000070: de29 6dbf 64dd b9bf ee88 21c0 e958 6bbf
-0.56764495 -1.2414703 -2.465861 -2.0702035 -1.4376968 -1.5331297 -2.9556859 -2.803021
-2.1179798 -2.4591959 0.11848892 -1.2569861 -1.6172193 -2.666389 -2.6894088 -1.8224455
-2.0475671 -1.5151718 -2.4040194 1.4638695 -0.9629292 -2.1856377 -1.5131999 -1.6423647
-1.7301536 -2.0206816 -1.5277679 -1.9017916 -0.9264201 -1.4520688 -2.5239825 -0.9193254

running_var f4 [32]
00000000: 9354 ad40 0abc 8d40 058f 9140 1c56 4c40
00000010: 23b4 8240 098a 0140 c291 8140 18bc 8040
00000020: 01ef d63f 6603 4740 3c72 1740 78a3 3440
00000030: 5256 f340 8307 af40 829a 7e40 e35e 9140
00000040: 8a77 2240 8049 2e40 042f 2740 3354 8540
00000050: 24e0 2f40 c78e 8940 ed3e f93f 6876 8740
00000060: 7746 8f40 dc7d 8040 7318 a33f 15f7 d23f
00000070: 3a85 8340 7d3e 4c40 6d8c 7a40 06bc 2140
5.416574 4.429204 4.5487084 3.1927557 4.0844893 2.02405 4.0490427 4.0229607
1.6791688 3.1095824 2.3663473 2.8224773 7.604287 5.469667 3.9781804 4.542833
2.538546 2.723236 2.6122446 4.166528 2.7480555 4.298679 1.9472328 4.233204
4.4773517 4.0153637 1.2741836 1.6481653 4.110013 3.191314 3.914821 2.527101

weight f4 [64, 32, 3, 3]
00000000: c60e 13bd c869 15bc b83a 35bc 07ec f9bc
00000010: 6085 8e3a 2e41 75bc 0039 743d 53d3 1f3d
00000020: bb0f 06bd 3138 dcbb a752 79bc 84de 00bc
00000030: bdd8 d8bb 6494 1e3b 2b8a 9cbb 147c cc3a
00000040: 4dc9 65bc 66f8 47bb 4060 8e3c 62f7 343d
00000050: 4d79 d738 b92f 863d 3525 643d c722 30bc
00000060: 91bb 823c f4b5 bdba 46e3 5b3b f976 823c
00000070: c2aa b63c 689d 053d 5f45 b43b c69e c93c
00000080: 5145 483d fa6d 333c ea0c 873c 82be b93c
00000090: 0df9 f9bb d460 493c db62 22bb fe29 443d
000000a0: 2638 b03b 2da1 41bb ac6e 03bc 77cf 2f39
000000b0: 2168 f439 a0b9 653c 32a3 b6bb 7ed1 2cbc
000000c0: 6e1a 393d 6fdd d5ba 29c1 01bd 03ea a53c
000000d0: 5131 843b 593d 2c3c f042 e73c 435f 843c
000000e0: 534e 133c 284e 59bc 3bb6 d83b 4e59 433c
000000f0: 4920 8bbc ca11 c6bb ab6f bfbc 2dd0 e6bb
00000100: 63b0 f1bb dbaf 793c fbbe 88bc 0f3e 3a3b
00000110: 273d fa3c be4d fe3b c6ec c83c d37a d2bb
00000120: 3e9b 803c 44b8 0eba cfe6 b2bb babc fbbc
00000130: 7ae9 6dbc 599d 11bc c819 9fbb 9d72 c13a
00000140: 4920 2f3c 47c4 3ebc f26c ccbc 83ab 323b
00000150: 1320 8e3c e87d 5cba 8043 a6bb 6bbb 0bbc
00000160: efbe 3dbc dda9 09bc b991 92bc 8c17 cf3a
00000170: a82a 563b 7ca0 7339 d4a6 db3c 80d5 ccbc
00000180: 1225 0e3c 70e5 273c 701a c3bc 610c 3e3c
00000190: 5b28 b239 2f63 9c3b 284c 00bc 00b4 263d
000001a0: f690 acbb f8d8 753d 5032 f13b 3d30 293c
000001b0: 9660 813c cadb 2bbb 965e 9fbc 4afa 283d
000001c0: de2c 9bbc 2398 9fbc c7a9 1cbd cdd0 39bb
000001d0: 8420 c73b cbec 003c 6759 523a d218 f73c
000001e0: ac18 383c aa44 16bc 8f63 1bbc 4e3f 93bc
000001f0: 0563 89bc dd6d a53c 8c73 d23b f77e c4bc
00000200: a35e 9a3c 450f 723c aa79 4bbc f936 223d
00000210: a443 ed3b aafe 14bc e34d eb3c 6c56 a4ba
00000220: a8f2 f2bb 2fa7 0ebc 4622 de36 eada 13bd
00000230: bae7 5bbc 3934 34bc 5ae1 9fbc 52b7 2eba
00000240: 33b4 973c 5b06 f5bb 1a89 e33b 3431 d2bc
00000250: a107 abbc a128 8a3c 83a5 45bc 4860 6b3c
00000260: e08e febb b652 993c 28b1 b33c 5de6 4ebc
00000270: 3c06 23ba f401 55bc 2d92 a8bc 3ba8 cfbc
00000280: 5775 1fbd c90b 743c db7b 753c 0761 913c
00000290: b685 253b 8102 65bc 80a0 fd3b 59c7 e4bc
000002a0: 9a2f b6ba 4c53 92bc 6a1c 43bc 398d 4f3c
000002b0: d5e9 223d 6c5d 043c 7632 c03c 5769 e43b
000002c0: ed0b b1bc b250 0bbd ce0f b3bc d646 a73b
000002d0: f73d b5bb 8e7f 9e39 175a e03c dfda 863b
000002e0: 7319 78bc 9335 2b3d 24b3 2fbb d234 01bc
000002f0: 0be6 eb3c 5618 10bb aa57 373c dc46 0c3d
00000300: 9f42 8fbb 7d8b 02bd 5660 db39 648d 313c
00000310: 3850 3c3d d7a7 9a3c 24b3 3abc 68c3 73bc
00000320: e84d 33bc a045 e03b fa09 5fbb 0e94 8d3c
00000330: dcf0 ac3c e6e9 aa3b 31b5 aa3c cfad e93b
00000340: c098 c4bc 1a72 b4bb ed0c 8bbc c3e1 2c3c
00000350: d75a 543d e607 003d 7c80 903d 3503 0c3d
00000360: 2ada 34ba 9b2c dfbc d37d a3bc 8181 293c
00000370: dd2b f53c cf22 b93b 0b58 c73c b158 25bd
00000380: c30a a0bc 0dc6 293d b37e 753d 44dc bd3c
00000390: 8006 6c3c 4710 f9bc e935 02bd 0c8a 18bd
000003a0: cda3 853c 2641 973c 52d2 fdbc e976 cabc
000003b0: 5d8b 083d 167a 9b3c 6c45 d33c ef76 ba3c
000003c0: 4f65 fa3b 11ce 9f3a b774 9a3c 0543 933c
000003d0: a8d2 1a3c b3ce 113c 4108 273c 12b3 b23c
000003e0: e24d e43b 6580 863c 9f9a 27bc d0ea a0ba
000003f0: 909e b9bc 117c 483c 50e2 1abc d077 e4bb
-0.03590276 -0.0091194585 -0.011061363 -0.030508054 0.0010873489 -0.014969153 0.059624672 0.039019894
-0.032729845 -0.0067205657 -0.01521746 -0.007865552 -0.006617634 0.0024197334 -0.004777213 0.0015600943
-0.014025045 -0.0030513047 0.01737988 0.044181235 0.00010274593 0.06552071 0.055699546 -0.010750479
0.01595858 -0.0014473782 0.0033552214 0.015925871 0.02229822 0.032620817 0.0055014337 0.024611842
0.04889423 0.010951513 0.01648565 0.022673849 -0.007628566 0.012291152 -0.002477816 0.04789161
0.005377787 -0.002954553 -0.008021992 0.00016766587 0.0004661689 0.014021307 -0.0055736536 -0.010547994
0.04519122 -0.0016316603 -0.031678353 0.020253187 0.0040341993 0.010512673 0.02823016 0.016158706
0.008990842 -0.013263263 0.0066135204 0.011923147 -0.016983168 -0.006044601 -0.023368677 -0.0070438595
-0.0073757633 0.015239681 -0.01669263 0.0028418337 0.030546738 0.0077607324 0.024526965 -0.006423333
0.015699025 -0.0005444328 -0.0054596434 -0.03072964 -0.014520997 -0.008887612 -0.0048553683 0.0014758889
0.01068885 -0.011643476 -0.024954293 0.0027262873 0.017349279 -0.00084110955 -0.0050739646 -0.008528571
-0.011581167 -0.008402315 -0.017891752 0.0015799864 0.0032679234 0.00023234071 0.026812948 -0.025004148
0.00867583 0.010247573 -0.023816317 0.011599631 0.00033980873 0.004772566 -0.007830657 0.040699005
-0.005266304 0.06002137 0.007360734 0.010326442 0.015793126 -0.0026223534 -0.019454282 0.04125432
-0.018942293 -0.019481724 -0.03824785 -0.0028353215 0.006076874 0.007868956 0.0008024186 0.030163202
0.011236351 -0.009171644 -0.009484186 -0.017974522 -0.016770849 0.020193988 0.0064224657 -0.023986323
0.018843954 0.014774148 -0.012419144 0.039603207 0.0072407294 -0.00909392 0.028723663 -0.0012537963
-0.007414181 -0.008706852 6.6201055e-06 -0.036097445 -0.013421947 -0.010998779 -0.019516636 -0.000666489
0.018518543 -0.0074775643 0.006943834 -0.025658228 -0.020877661 0.016865076 -0.012063387 0.014366217
-0.007768497 0.018716197 0.02193506 -0.012628165 -0.00062188855 -0.013000954 -0.020577515 -0.025348773
-0.038930263 0.014895388 0.014983143 0.017746462 0.00252567 -0.013977648 0.0077400804 -0.027927088
-0.0013899684 -0.017861985 -0.01190863 0.012667947 0.03977378 0.008078914 0.023461562 0.0069705653
-0.021612132 -0.034012504 -0.021858122 0.00510488 -0.0055310684 0.00030231144 0.027386708 0.004115447
-0.015142786 0.04179914 -0.0026809657 -0.0078861285 0.028796216 -0.0021987162 0.011190334 0.034247264
-0.0043719555 -0.031871308 0.0004184271 0.010836933 0.04597494 0.01887886 -0.0113952495 -0.014878131
-0.010943867 0.0068442374 -0.0034033046 0.017282512 0.021110944 0.005215871 0.020838352 0.0071313153
-0.023998618 -0.005506766 -0.016973937 0.010551873 0.051844444 0.031257533 0.070557564 0.034182746
-0.0006898964 -0.02724295 -0.019957459 0.010345818 0.029928142 0.0056499015 0.024333974 -0.040367786
-0.019536382 0.04144864 0.059935283 0.02317632 0.014405847 -0.03040327 -0.031789694 -0.037241027
0.016313458 0.018463682 -0.030984078 -0.024714904 0.033336032 0.018979114 0.025789939 0.02276179
0.0076414715 0.001219215 0.018854482 0.017976293 0.009449638 0.008899379 0.010194839 0.021813903
0.006967292 0.016418645 -0.010229736 -0.0012277011 -0.022658616 0.012236611 -0.009453371 -0.0069722906

bias f4 [64]
00000000: a690 0735 e8b2 2b34 9c06 b135 bf18 4eb6
00000010: 62e4 08b6 97f3 2d36 080e 8f34 a774 f9b5
00000020: 1e34 0035 2d5a b4b2 26d3 0535 1841 d8b5
00000030: b3bd b235 8eb5 85b5 4987 2cb5 d18f 07b4
00000040: 36e5 7bb4 7165 d133 1086 d534 a5b7 f235
00000050: 4362 17b6 37b2 2635 ef22 1fb5 03bf 7435
00000060: 6f39 8335 237c 8636 3301 49b5 39c5 41b5
00000070: 0c5b 8bb5 0790 8f35 db77 03b6 493b b935
00000080: b326 3c36 dc4c ae34 687d 0235 70c6 5a35
00000090: 8547 73b2 1341 2536 48b7 bf33 b6fc 1e36
000000a0: d9bb be33 751a 20b6 0952 90b5 13bd 6eb3
000000b0: 0bc3 9c35 5582 cc33 58c6 e9b5 2ec8 cfb5
000000c0: faba 3235 5608 3735 9511 f435 8b4e c435
000000d0: cedf fd35 6c36 0000 6c9c 54b4 b229 cdb5
000000e0: be00 f7b3 14d6 c735 9ae1 e2b5 2a2f b5b5
000000f0: 36cf 1634 2485 f5b4 7f71 9635 ef11 7235
5.050191e-07 1.5990702e-07 1.3189451e-06 -3.0710796e-06 -2.0398516e-06 2.5920797e-06 2.6646035e-07 -1.8585896e-06
4.7759556e-07 -2.0995765e-08 4.985362e-07 -1.6112199e-06 1.3317243e-06 -9.962112e-07 -6.427186e-07 -1.2625175e-07
-2.3459583e-07 9.750773e-08 3.9771885e-07 1.8083853e-06 -2.255795e-06 6.2099156e-07 -5.928295e-07 9.117504e-07
9.776976e-07 4.0079626e-06 -7.488008e-07 -7.21851e-07 -1.0382805e-06 1.0696248e-06 -1.9590286e-06 1.3800828e-06
2.803671e-06 3.2465948e-07 4.8611264e-07 8.1500093e-07 -1.4160723e-08 2.4624794e-06 8.927469e-08 2.3690932e-06
8.881734e-08 -2.3857258e-06 -1.0752711e-06 -5.5585655e-08 1.1679671e-06 9.5231975e-08 -1.7417578e-06 -1.5480962e-06
6.6582254e-07 6.8184943e-07 1.8184534e-06 1.4625997e-06 1.8915105e-06 1.9523e-41 -1.9800945e-07 -1.5285825e-06
-1.1501969e-07 1.488896e-06 -1.6903971e-06 -1.3499277e-06 1.4045222e-07 -4.573168e-07 1.1208903e-06 9.017812e-07

weight f4 [64]
00000000: 2607 773e d816 dd3e 35a1 183f e51d 073f
00000010: a62c 003f efe8 3f3f 16d6 7d3e 0270 213f
00000020: 114f 243f 4950 a33e 0108 1a3f ca61 203f
00000030: 17ed 1d3f 81ab 3c3f 46ca 123f d1a6 193f
00000040: 4d0b 2f3f 2f52 e13e 447f 933e 2f75 4b3f
00000050: 4068 3f3f 4b97 033f 6b23 003f 46b6 1e3f
00000060: adac 063f a67e 353f 7e0f 413f 112c 373f
00000070: b390 8a3e ed5d 643f 1613 3d3f 02df 463f
00000080: f741 d23e 3c8f 263f e53c 323f c04d d03e
00000090: cf43 973e ed55 213f f1ed 243f 6d19 013f
000000a0: c28c 123f 2dbe 513f fc68 3e3f 9b0d 433f
000000b0: 58fb 323f 0c9e ac3d 85ea 483f 6b42 143f
000000c0: 5829 283f cbfb 1f3f 497c d13e 198a 193f
000000d0: 7b88 e03e 09b1 4f3b 4145 9b3e 8e95 e53e
000000e0: da64 093f d5dd 223f 0ac9 3d3f 8a04 423f
000000f0: d679 c73e ea04 1b3f c1e8 f03e 006f 543f
0.2412382 0.4318149 0.5962098 0.5277999 0.5006813 0.74964803 0.24788699 0.63061535
0.64183146 0.3189719 0.60168463 0.62649214 0.61689895 0.73699194 0.57339895 0.60020167
0.6837662 0.44008014 0.28808033 0.7947568 0.7476845 0.5140273 0.50054044 0.6199688
0.5260723 0.70896375 0.75414264 0.71551615 0.27063522 0.8920582 0.7385725 0.7768403
0.41065952 0.6506231 0.6962417 0.4068432 0.2954392 0.6302174 0.6442557 0.5042942
0.5724603 0.8193081 0.74378943 0.76192635 0.6991477 0.084285825 0.7848285 0.57913846
0.65688086 0.6249358 0.40915135 0.59976345 0.43854126 0.0031691215 0.30326274 0.44840664
0.5366951 0.6361974 0.74134886 0.75788176 0.3896014 0.60554373 0.47052577 0.8298187

bias f4 [64]
00000000: 3258 84be 0d9f cabe 6a58 2abe b8fd 68be
00000010: 8d45 ecbe 935e 30bf e88e 9ebe 92a4 07bf
00000020: 48b5 7bbe 4292 81be dc18 d9be 640d cfbe
00000030: 723a e3be 6583 16bf 6732 05bf 142c 4dbe
00000040: ad13 f4be 501e d6be 146f 9fbe 463e 28bf
00000050: c8bc 22bf 276f 88be f789 d5be d5a1 11bf
00000060: 0d4f 51be 5d1a e1be cba3 1dbf 123f cdbe
00000070: 1c4f a3be 5cff 48bf ba2a cbbe 52c4 39be
00000080: fbc8 d2be 47bb 09bf a013 acbe a2c2 b8be
00000090: 248d 8dbe 120c c5be 38a0 02bf f775 00bf
000000a0: 9561 92be 9bd5 1bbf c56b b0be 9ad6 3bbf
000000b0: 0e7d cabe 5920 f3bd eb92 04bf b3c6 a2be
000000c0: 87ed 13bf f0ef 1ebf 49e8 9abe e925 e8be
000000d0: 1e5b c2be 3840 f9ba c7f4 a2be 017c 22be
000000e0: e98a 35be f899 a1be 5e9e 1dbf a428 d7be
000000f0: 598d 9abe 81ab 16bf e903 d3be a0bf e3be
-0.25848538 -0.3957447 -0.1663529 -0.22753036 -0.46146813 -0.6889431 -0.30968404 -0.5298549
-0.24580872 -0.25306898 -0.4240178 -0.40439904 -0.44380528 -0.5879424 -0.5203003 -0.20036346
-0.4767126 -0.41820002 -0.31139433 -0.6572002 -0.6356931 -0.26647303 -0.4170682 -0.5688756
-0.20440312 -0.43965426 -0.61578053 -0.4008718 -0.31896293 -0.7851465 -0.39681035 -0.18141297
-0.4116896 -0.5380139 -0.33608723 -0.36085993 -0.27646744 -0.3848577 -0.51025724 -0.5018
-0.28590074 -0.6087281 -0.34457222 -0.7337433 -0.39548534 -0.11871404 -0.5178668 -0.3179222
-0.5778431 -0.62084866 -0.30255345 -0.45341423 -0.37960142 -0.0019016331 -0.31827375 -0.15867616
-0.17728771 -0.3156278 -0.61569774 -0.42023194 -0.30185965 -0.58855444 -0.4121392 -0.44482136

running_mean f4 [64]
00000000: d9d0 023e d6e4 1fbe ebea 58bf cd6d 12bf
00000010: c900 dcbe b0bf 87bf e55c c03b 1ca6 23bf
00000020: 2529 95bf 8ae4 aa3d 4dc7 6abf cd56 04bf
00000030: 7195 38bf 77f3 32bf e770 19bf e7c1 94bf
00000040: b99a 0abf d041 b9be 8ef0 e13d 6ab8 a0bf
00000050: 49c2 60bf c75b 8abf c4ef 06bf 2a06 53bf
00000060: 4031 80bf 7aa1 86bf f5c3 4bbf 6ff0 c2bf
00000070: 3e5b 2abd e2a3 87bf d182 88bf 7536 d2bf
00000080: de2a abbd 49fa d9be 0ac8 b3bf dacf 07be
00000090: f467 bf3d bcd0 33bf 89d4 f0be c5a6 bdbd
000000a0: 7002 45bf 7cf8 80bf 210f 85bf 1352 4ebf
000000b0: 837d 5bbf cfd5 fcba 9da9 bebf 7ff1 60bf
000000c0: f6cb e4be 66ff 33bf 0561 4a3e 4a44 02bf
000000d0: 4ce2 8fbe 0719 ffb2 4515 e9bd 849f 25bf
000000e0: 4473 cabe 7be7 57bf 9190 2dbf 46be 95bf
000000f0: f7b0 f9ba c2fa 11bf ea3c 45bd 8db0 abbf
0.12774982 -0.15614638 -0.84733456 -0.5719879 -0.4296935 -1.0605373 0.005870449 -0.6392534
-1.1653181 0.083443716 -0.9171036 -0.5169495 -0.7210303 -0.6990275 -0.599379 -1.1621674
-0.5414234 -0.36183023 0.1103221 -1.2556279 -0.87796456 -1.0809258 -0.52709603 -0.8243128
-1.001503 -1.0518029 -0.7959588 -1.5229625 -0.04159092 -1.0596888 -1.0664922 -1.6422869
-0.08357786 -0.42573765 -1.4045422 -0.13262883 0.09345999 -0.7024038 -0.4703715 -0.092603244
-0.76956844 -1.0075831 -1.0395242 -0.80593985 -0.8573839 -0.0019289794 -1.4895512 -0.87868494
-0.4468686 -0.7031158 0.19763573 -0.5088545 -0.28102338 -2.9697288e-08 -0.1138101 -0.64696527
-0.39541066 -0.84337586 -0.67798716 -1.1698692 -0.0019049932 -0.5702325 -0.048153795 -1.3413254

running_var f4 [64]
00000000: b547 bd3c d3e3 273e ba42 963f a7be 083f
00000010: 1bff 6b3e 5bee 313f 1f0c a53c 1f3c e33e
00000020: bd6c 883f dcc8 2c3d c421 0d3f 6d40 1b3f
00000030: 4b72 083f 193c 433f 1485 a03e 4216 8c3f
00000040: e6d7 1b3f 3fee 213e 62c3 643d 8007 7f3f
00000050: 0e79 6f3f b47a c03e 92ed 5c3e 3579 b93e
00000060: a036 793f 9dd0 7f3f cc5e 643f e19b b13f
00000070: d66b f53c 8954 9e3f 1906 9f3f c862 1b40
00000080: 5961 773d ef55 db3e 7a9c a83f f0b5 033e
00000090: eebb 093d 3a6f 813f e0d3 103f 103d 193e
000000a0: a7b0 283f 948f a93f 0c3c c13f 94e5 213f
000000b0: 0b4f 783f 0f47 c83a 9e8d 8c3f 0068 3f3f
000000c0: 055f e23e c663 b83e a5ce 013e 2c6f be3e
000000d0: c48d 183e 8c14 a526 a7d9 803d 56cc 063f
000000e0: 49fb 1b3f 3060 9c3f 70b9 303f e032 aa3f
000000f0: 840d 033e 830a 993e 1c63 083e 9ea4 c03f
0.023105482 0.16395502 1.1739113 0.5341591 0.23046534 0.69504327 0.020147381 0.44381806
1.0658184 0.042183742 0.5512965 0.6064518 0.532994 0.76263577 0.3135153 1.0944293
0.6087631 0.1581354 0.055850394 0.9962082 0.9354409 0.37593615 0.21575001 0.36225286
0.97348976 0.99927694 0.8920715 1.3875695 0.029958647 1.2369548 1.2423736 2.4279041
0.060395572 0.42839 1.3172753 0.12862372 0.03362649 1.0112069 0.56573296 0.149647
0.6589455 1.3246942 1.509645 0.63240933 0.9699561 0.0015279966 1.0980718 0.74768066
0.4421312 0.3601362 0.12676485 0.37194192 0.1489783 1.1454744e-15 0.06291514 0.5265554
0.60930306 1.2216854 0.69032955 1.3296776 0.12798125 0.29890832 0.13319057 1.5050237

weight f4 [128, 1600]
00000000: 7bb5 a0bc e9d7 663c 886d 82bc b1fc 973b
00000010: 035a 2e3c 8acd 653b 290d 96bc 216a 1ebc
00000020: 6ff1 4c3c 5ed3 b0ba 4731 fcba b4e0 ea3a
00000030: 967f 863c 9622 4e3c df38 22bc 7c8f fdbb
00000040: e71e 3fbc dda0 d53b ac1b 4a3b 31ee 0e3b
00000050: 853c f4bb 05b6 b5bc a060 75bc fa9e 02bc
00000060: 2382 a3bc f32d 393b 6760 7a3d 5696 1d3e
00000070: 240e c33c 0927 c83c 86cf 8abc b68a 223d
00000080: 848a 953c 70e8 bc3c 21d0 223c c8bd 22bc
00000090: be5b debc 028f e9bc 6877 d0bc 48ce abbb
000000a0: 1028 38bd 0311 b2bc f9b3 26bc e341 fa3c
000000b0: d705 ae3c bcef e4bc 9e0d a13d 94b8 663c
000000c0: aa33 fbbb 3963 b33c 4318 203d bc74 033b
000000d0: 8598 3fbd 9776 d33c 1ed4 b2bd ec4e eebb
000000e0: c97b 93bd 6bdc 8dbd 0dbb ff3d b0e9 c83d
000000f0: a158 a5bd d198 84bd 144c 943b aef1 783e
00000100: f2c0 d03d af16 1ebd ecb2 15bb 4cdf f23d
00000110: 8dfb ed3d 9a1b e3bc 0bf3 d5bc 5df8 c83c
00000120: f5df 0c3e 1e65 4cbd 1b4e d3bd 0745 713c
00000130: f73b e53c 5380 123d 56d4 a9bc fc6b 3abd
00000140: 4f42 a2bc 0b73 4cbd 4be9 31bb 7f70 123d
00000150: 55ea 1cbd 48e1 98bc 59c7 f2bd 205e efbc
00000160: a6f2 a2bd e3f2 f7ba 1f0d 643b d566 853c
00000170: 166b 0abd 0585 b9bd 0e45 09bd c167 d63c
00000180: 668e 43bb c589 9bbc 6800 3dbd b3d4 86bc
00000190: c112 9fbb 40dc da3b 6bb0 c9bc 4816 033d
000001a0: 3883 97bc 33a1 293d 67f1 0fbd 559c 01bd
000001b0: e018 323c e819 af3c f09c adbb a872 2f3d
000001c0: 0fa3 0c3d 4410 b0b9 d00a 903c 3405 f8bc
000001d0: 0f94 40bc f6ed 33bd 8e2c 893c 8026 e33c
000001e0: fc8e 5b3d 05be a83c c8dd 1cbd ca28 e73d
000001f0: 9fe5 d33c e944 d93c ee66 d8bc 157d a53b
00000200: a90d ec3c b75b d03d e37a 183d bf08 99bd
00000210: 99cb 31bc 6a25 cdbd 6376 2fbd a208 893d
00000220: 6aee 58bd 0b72 e539 be59 743d 5c70 a33d
00000230: c96e 26bc 16a1 23bd 3fe8 10bb 8bcf 4b3d
00000240: 93a3 4ebb fd3f 0dbd 3579 a23d 4119 d73d
00000250: be16 013d 98e6 fabc c13e 09bc 156c 8b3c
00000260: 1b60 74bc 56e2 4abc d1ed d9bb 85e5 18bc
00000270: 30bb ce3c a907 06bc 13f0 663b b304 bd3c
00000280: 94c5 52bb c2ea a93c ff79 bdbb 1dc3 47bb
00000290: 2035 893c 990f 8ebc 82a3 1e3d deed 913c
000002a0: 8a8f 4e3c 8e5a 413c 4886 8fbc c8c5 1a37
000002b0: db67 1cb7 8d0c f3bb ba0a a03b 7655 33bd
000002c0: a905 6a3a ddd9 d0bc 9c75 883c e61c c6bd
000002d0: c256 91bd 202f 1a3c 66a4 d8bd 6ee1 0bbd
000002e0: a3f7 36ba 399a 8fbd 7be0 5a3d a6cb 4fbd
000002f0: 44ac f13c bd52 8c3d c499 eb3c 5911 983d
00000300: 6865 513d 2033 7abc 35b8 fabc 3827 9e3c
00000310: 8d94 b13d de1e 413c db23 c6bd f2ff ebbc
00000320: d21b 90bc 8d07 26bd 75b0 00be c894 e1bc
00000330: 637e 60bc b981 4bbc 6c72 eebb 3f60 aabc
00000340: 84b5 8d3d c775 a0bc 91f0 2c3c f5e7 14bd
00000350: db83 b5bc 8f55 ccbc a96a 863d b04b 4d3c
00000360: 124e c43d 3234 8a3d 28df 1cbd 76bd 70bd
00000370: a340 af3d c1b3 133e e856 1c3d c224 dbbb
00000380: bdb6 ba3c 2a86 9dbb bc9a de3c 1adf 7a3c
00000390: 31b8 57bd 5dbe dfbc e179 0cbc 104f 013d
000003a0: bba8 27bd 7a45 213c f5af cabc 84d3 df3c
000003b0: fd01 34bc ae4e 02bd ee4e 2cbd 72ac a3bc
000003c0: d9d9 17bd 1024 48bd 03b1 14bd 8b62 adbc
000003d0: 35b4 4fbb ad17 bcbc a918 ec3c a5f9 b4bc
000003e0: 3123 a2bc b61a 453c 4e9d 423d dd95 e13c
000003f0: d877 cbbc 2a00 f8bc e284 2c3d ac89 663c
-0.019617787 0.014089563 -0.01592137 0.0046382775 0.010641578 0.0035065138 -0.018316822 -0.009668858
0.012508734 -0.0013490727 -0.001924076 0.001791975 0.01641826 0.012581488 -0.009901254 -0.007738052
-0.011665083 0.0065194205 0.0030839248 0.0021809454 -0.0074535036 -0.02218152 -0.0149766505 -0.007972473
-0.019959515 0.0028256148 0.061127093 0.1538938 0.023810454 0.024432676 -0.016944658 0.039683066
0.018254526 0.023060054 0.009937317 -0.009932943 -0.027143355 -0.028510574 -0.025447562 -0.0052430965
-0.04496008 -0.021736627 -0.010174745 0.030548995 0.021243019 -0.027946346 0.078639254 0.014082093
-0.007666071 0.021897899 0.039085638 0.0020058593 -0.046776313 0.025813384 -0.087318644 -0.007272592
-0.072013445 -0.06926807 0.12486849 0.09810197 -0.08073545 -0.0647446 0.004525671 0.24310943
0.101930514 -0.03859585 -0.0022842241 0.11858997 0.11620245 -0.027723122 -0.026116868 0.024532491
0.13757308 -0.04990112 -0.10317632 0.01472593 0.027982695 0.03576691 -0.020731132 -0.04551314
-0.019807009 -0.0499144 -0.002714711 0.035751816 -0.038309414 -0.01866211 -0.11854429 -0.029219687
-0.07956438 -0.001891699 0.003479786 0.016284386 -0.03379353 -0.090585746 -0.03351312 0.02617252
-0.0029839515 -0.018986592 -0.046142966 -0.016458845 -0.0048545306 0.006679088 -0.024620255 0.03200367
-0.018495187 0.041413497 -0.03514233 -0.03164323 0.0108701885 0.021374658 -0.0052982494 0.042833954
0.034335192 -0.00033581455 0.01758328 -0.030275919 -0.01175405 -0.04392811 0.016744878 0.02772832
0.053603157 0.02059842 -0.038297445 0.11287077 0.025866328 0.026522117 -0.026416268 0.0050503113
0.028815107 0.10173743 0.03722657 -0.07472371 -0.010851764 -0.10016902 -0.04283751 0.066911
-0.052961744 0.00043763252 0.059655897 0.07980415 -0.010158249 -0.039948545 -0.0022111086 0.049758475
-0.0031530603 -0.034484852 0.07933275 0.10502864 0.03151583 -0.030627534 -0.008376778 0.017019311
-0.014915491 -0.012383064 -0.0066506644 -0.0093320655 0.025235742 -0.008180537 0.003523831 0.02307353
-0.0032161223 0.020741824 -0.0057823653 -0.0030481287 0.016748965 -0.017341422 0.038730152 0.01781362
0.012607465 0.011801375 -0.017520085 9.225165e-06 -9.322505e-06 -0.0074172677 0.004884091 -0.043782674
0.0008927235 -0.02549451 0.016657643 -0.09673481 -0.07096626 0.00941065 -0.105782315 -0.034150533
-0.000697965 -0.070118375 0.053436738 -0.050731324 0.029501088 0.068517186 0.028759845 0.07425184
0.0511221 -0.015270978 -0.030605415 0.01930581 0.08670912 0.0117871445 -0.09674808 -0.028808568
-0.01759139 -0.040534545 -0.12567313 -0.027536765 -0.013702008 -0.012421065 -0.0072768237 -0.020797847
0.06919387 -0.01958741 0.010555402 -0.036354024 -0.0221576 -0.024943141 0.065633126 0.012530252
0.09585203 0.06748237 -0.038298756 -0.058774434 0.0855725 0.1442404 0.038168818 -0.0066877315
0.022792215 -0.0048072534 0.027173392 0.015311981 -0.052665893 -0.027312452 -0.00857398 0.03156954
-0.0409324 0.009843225 -0.024742106 0.027322538 -0.010986802 -0.031813316 -0.04206746 -0.01997969
-0.03707299 -0.048862517 -0.036301624 -0.021165153 -0.0031693105 -0.022960508 0.028820353 -0.022091696
-0.019792171 0.012030294 0.0475133 0.02753728 -0.02483742 -0.030273516 0.042118914 0.0140709095

bias f4 [128]
00000000: 9f61 c6b4 13f2 84b5 71b5 2eb4 1654 2db4
00000010: 4785 91b4 f541 7534 fe46 57b4 fc1f 7735
00000020: 4770 a0b4 fa7a 8cb3 3dc9 1835 702f 3f34
00000030: 0c5b d033 90c7 bf34 2eb9 a5b4 fd0c c434
00000040: 28b6 61b3 4a02 bb34 1694 3a35 a3ae e0b2
00000050: da1d 9432 cd7e 1e35 712c 0fb4 ad50 0735
00000060: 514d 6fb3 450b b134 d99d a935 7d68 4e34
00000070: 4e16 9534 c139 a831 fd5b c635 a2b4 8bb5
00000080: 9954 07b3 07fb 19b4 6cc7 cd34 eb4a 0d35
00000090: d28f 3fb4 4ac7 fc33 8011 ab33 2344 aa32
000000a0: 5f87 7b34 bbb4 3cb4 ff96 1335 9349 7833
000000b0: 42b8 9535 6569 0f35 ec1b 8234 ecca f434
000000c0: e0d5 c6b4 25d4 ef33 09bd 6934 9a5d 8b34
000000d0: f541 50b4 e86e 22b4 9653 53b5 927d 3635
000000e0: 753c 2cb4 6e28 1db4 fa9d d6b4 685c ee33
000000f0: 0b74 e8b1 e081 12b5 061f aa34 0c8a 0c35
00000100: b834 2434 8a75 b2b4 d136 0e33 fd35 69b4
00000110: 0d31 2db3 a0bc a734 a287 c8b4 5f3b 1435
00000120: b466 87b4 b027 ae34 1ee7 0235 3b45 2cb5
00000130: 8c31 2eb5 ca1a 1935 84bd ec33 0b05 66b4
00000140: f823 f834 a543 2b34 293f 7ab4 c54f b7b4
00000150: 8fdf 81b4 cde6 14b5 20f8 1033 d0b2 c3b2
00000160: 28a8 2a33 da8d 51b4 291c feb4 8e07 2934
00000170: f703 70b5 c49c d434 37db 27b5 44d1 6333
00000180: 32ad 8cb4 fb92 0435 3c35 1335 0493 80b4
00000190: b583 5cb5 ee81 4334 ab58 b334 dda0 6534
000001a0: 1185 8234 d375 9b34 4e4a 0035 ab52 8ab4
000001b0: 2a01 81b5 ac6e 3fb5 f032 10b4 82b4 b533
000001c0: 4a5d 2133 77b2 cf34 5574 d2b5 9594 61b5
000001d0: 7ffb fab4 0b40 be33 e2d7 6835 630c 31b5
000001e0: 3966 ddb2 edb7 8e33 e388 66b4 0af1 2833
000001f0: a87e ca33 ba66 5fb5 09f6 64b4 199c 0cb5
-3.6951403e-07 -9.905219e-07 -1.6271021e-07 -1.6142471e-07 -2.7105327e-07 2.2841398e-07 -2.0049262e-07 9.2061214e-07
-2.9884015e-07 -6.541627e-08 5.691725e-07 1.7805519e-07 9.702316e-08 3.5721723e-07 -3.086838e-07 3.6517295e-07
-5.2552565e-08 3.483313e-07 6.9505893e-07 -2.6156448e-08 1.7243043e-08 5.9044106e-07 -1.333408e-07 5.040882e-07
-5.5716843e-08 3.297702e-07 1.2637421e-06 1.9223258e-07 2.7769642e-07 4.8960094e-09 1.4778922e-06 -1.0408878e-06
-3.1509078e-08 -1.4340559e-07 3.8329324e-07 5.2635613e-07 -1.7840583e-07 1.1770915e-07 7.965991e-08 1.982159e-08
2.3425444e-07 -1.7574614e-07 5.4981496e-07 5.7808915e-08 1.1154991e-06 5.342502e-07 2.4234703e-07 4.5596187e-07
-3.7035988e-07 1.11678936e-07 2.1768587e-07 2.5958872e-07 -1.9395505e-07 -1.5127773e-07 -7.872526e-07 6.798301e-07
-1.6040742e-07 -1.4636473e-07 -3.997555e-07 1.1099547e-07 -6.7652812e-09 -5.457823e-07 3.168754e-07 5.235495e-07
1.5292869e-07 -3.3240605e-07 3.3111807e-08 -2.1719457e-07 -4.0324313e-08 3.1243417e-07 -3.735159e-07 5.522069e-07
-2.5220436e-07 3.2438902e-07 4.8765094e-07 -6.4175737e-07 -6.489215e-07 5.7035925e-07 1.1024079e-07 -2.1422254e-07
4.621977e-07 1.5950225e-07 -2.3306042e-07 -3.4144446e-07 -2.4190783e-07 -5.5470156e-07 3.375328e-08 -2.2782302e-08
3.9734147e-08 -1.9516247e-07 -4.7331676e-07 1.57421e-07 -8.9412737e-07 3.960214e-07 -6.253135e-07 5.3042882e-08
-2.6203048e-07 4.9387717e-07 5.4839234e-07 -2.3948826e-07 -8.2148046e-07 1.8208058e-07 3.3405863e-07 2.1385809e-07
2.4311205e-07 2.8956728e-07 4.7791843e-07 -2.5764652e-07 -9.611588e-07 -7.1314093e-07 -1.3429576e-07 8.4613035e-08
3.757058e-08 3.8686605e-07 -1.5680076e-06 -8.4035247e-07 -4.6749116e-07 8.859214e-08 8.6740886e-07 -6.5955663e-07
-2.5774272e-08 6.645846e-08 -2.1470218e-07 3.9334772e-08 9.4293966e-08 -8.322346e-07 -2.1323662e-07 -5.2381216e-07

weight f4 [128]
00000000: f21f 803f b2c8 983f b5e6 863f 9817 903f
00000010: e600 103f def8 323f 5eb0 913f cc0c 973f
00000020: 3c25 7c3f 8de4 b63e f8b9 7e3f 51e9 a03f
00000030: 9f8b 3b3f 801c 543f 2017 793f 600d 423f
00000040: 356e 5c3f 83ab 573f b48f 143f 387e 6e3e
00000050: 6f89 973c d034 823f 96ae 783f fc46 523f
00000060: be37 593f f6fa 8c3f 6e9a a23f 77dd 193f
00000070: 87fb 9e3f e63d 3e3f f1c1 773f 13cb a23f
00000080: f810 c43e e676 0c3f a978 8e3f 8f43 8a3f
00000090: 3223 253f e7cb 473f 3020 403e e7ab 803f
000000a0: f7d0 143f 73ec 823f 4def e53e 6e21 9f3d
000000b0: 5201 8a3f feec d13e f4a3 983f 76b1 633f
000000c0: babd 833f 8883 cb3e b2c6 963f a4c8 543f
000000d0: ee9b e13e 4f00 473f 0a33 6f3f 3f23 683f
000000e0: bec6 733f bc6e 703e a441 843f 25b7 493f
000000f0: f568 2c3f 61a9 4e3f a448 003f 1cb8 3d3f
00000100: f75f 103f 8beb 683f 32a5 313e 5f67 7b3f
00000110: a551 773d 86b5 e63e 6e35 103f 865d 273f
00000120: 604c 903f ed69 233f 58cc d43e 9b27 883f
00000130: 19c9 3b3f 2eb2 823f 5257 a83f 06e6 433f
00000140: d1a3 883f 8755 1d3f cfda 6a3f be0e 8d3f
00000150: 602d 9e3f e67f b13f 20c7 2e3f a444 003f
00000160: 5766 303f a9db 563f e606 613f 2a0f de3e
00000170: 3fb7 783f 1b67 993f fe9c 393f adea 853f
00000180: fca4 aa3f 6923 1b3f dbec 323f 7b1a 4e3f
00000190: 6bb0 533f 8ae7 873f 7b38 113f eed1 513f
000001a0: d247 e93e e341 073e 9ac0 a83f 0338 323f
000001b0: 78ae 743f b300 d13e 5eed e53e 6da9 9e3f
000001c0: 416e 0a3f 9784 973f 110c 773f 28fd a13f
000001d0: cf5b a03f 73f8 9d3f f33c b53f 22f6 803f
000001e0: 75b9 973f d734 243f a9e4 883e 39c2 443f
000001f0: 6d4c a53d 8beb 863f a937 a73f 6f75 963f
1.0009749 1.1936247 1.0539156 1.12572 0.5625137 0.6991099 1.1381948 1.180078
0.98494315 0.35721245 0.99502516 1.2571203 0.7325992 0.8285599 0.9730091 0.7580166
0.8610566 0.8424608 0.58031774 0.23290336 0.01849815 1.0172367 0.97141397 0.82139564
0.8485068 1.1014087 1.2703378 0.60103554 1.242051 0.743132 0.96780306 1.2718223
0.38294196 0.54868925 1.1130573 1.0801867 0.6450683 0.78045505 0.18762279 1.005246
0.58131355 1.0228409 0.44909135 0.07770048 1.0781653 0.41001123 1.1925035 0.8894266
1.0292275 0.39748788 1.1779387 0.83118653 0.44064277 0.77734846 0.93437254 0.9067878
0.9522513 0.23479742 1.0332532 0.7879508 0.6734765 0.807272 0.5011084 0.74109054
0.5639643 0.9098441 0.17348173 0.98204607 0.060380597 0.45060366 0.5633153 0.6537708
1.1273308 0.63833505 0.41562152 1.0637087 0.73353726 1.0210626 1.3151648 0.7652286
1.0674993 0.6145863 0.91740125 1.1020124 1.2357597 1.3867157 0.6827259 0.5010474
0.6890616 0.83928925 0.8790115 0.43370944 0.9715461 1.198459 0.72505176 1.0462242
1.3331599 0.60600907 0.6989266 0.80509156 0.8269107 1.0617535 0.5672681 0.8196095
0.45562607 0.13208728 1.3183777 0.6961672 0.9557872 0.40820846 0.4490766 1.2395455
0.54074484 1.1837338 0.96502787 1.2655382 1.2528018 1.2341446 1.4159225 1.0075114
1.1853472 0.6414313 0.26736954 0.7685886 0.08071218 1.0540632 1.3063861 1.1754588

bias f4 [128]
00000000: 9ece 163e 10ff 843c 8e82 143d 37f2 4e3d
00000010: 7953 57be 4ec6 aa3c d43c 81bc 3a34 ec3c
00000020: a4df cbbb 57a6 973d b530 1f3e fe68 0ebe
00000030: 2dc8 b83b d8d9 d2bd 9c8a f7bd eaf7 5cbc
00000040: 2463 1d3e 39e2 333d 5443 853d 39a1 333c
00000050: ba13 7dbc 1f3f 04bd f39e e03d 357b dfbd
00000060: 6a4a 5bbd 9c29 8b3d 8094 523e 75da bfbb
00000070: e7cb d43c 0ede 8c3c 94a9 ef3c d828 ae3d
00000080: 3b29 08be 4441 02be 3acc 2d3e b043 093e
00000090: e0d8 03be df8f 58be 8e3b 9abd 0c25 22be
000000a0: ea94 0fbe 3b3f d33a a7f2 91bd 1321 7dbd
000000b0: 9426 9a3d 1e33 42be c55a 103e aca0 7ebc
000000c0: befa e4bc 0bd3 d23d 2683 7e3e f330 8cbd
000000d0: 4b58 8abd 3f34 59be f2bb 23ba 330b 953b
000000e0: 8485 913c 5f28 e9bc a8d8 e8bd c426 4fbe
000000f0: fc0a 18bd 964f c1bd b7c5 9cbd e727 86bd
00000100: 8ea4 46be 1d09 693d 88c1 a6bd f8e1 7ebd
00000110: c897 31bd 78e2 0ebe a7bc f4bd 3415 0abe
00000120: a8c7 83bd 764d 71be 5380 07be c03a 6a3e
00000130: 1654 c9bd beea 08be 6bf5 8a3e 63f2 b9bd
00000140: e919 733e 2c01 aebd 84ce 9a3d 18c2 c33d
00000150: 26bf a63d 84f4 fcbd acbb 27bd 5f40 7a3c
00000160: 675d 38be dcec 92bd 7ac3 cc3c f895 b6bd
00000170: b8c9 a13c 3735 883e 0f55 97bc fbfb 21be
00000180: efc0 8d3e 9bd4 20be 3fb6 003e 71e1 2dbe
00000190: 3f40 1fbe ca7d afbd 1598 3abe d948 56bd
000001a0: d39e 5bbe f7eb 85bd 3349 ad3d 1da5 8aba
000001b0: 589c 1fbe 6a33 abbd 9a29 24be 197d 2e3d
000001c0: 1146 02be 04d4 1e3e 9c3c a53d 3089 903e
000001d0: ef6f a53d fe75 673d 2944 d43d 63c4 a2bd
000001e0: bc62 883d d5ab 3d3e cf74 93bc 2afa 323d
000001f0: 3adf 2ebd 6432 0f3e 8ca8 803e 41aa cc3c
0.14727256 0.016234905 0.03625732 0.050523963 -0.21027936 0.020846512 -0.015776075 0.028833497
-0.0062217284 0.07404774 0.15545924 -0.13907239 0.005639097 -0.10295457 -0.120869845 -0.013486842
0.1536985 0.043916915 0.065069824 0.010963731 -0.015446598 -0.03228676 0.10967817 -0.10912172
-0.053537764 0.06795046 0.20564461 -0.0058548995 0.025976134 0.017195728 0.029255666 0.08503884
-0.13296978 -0.1272021 0.16972438 0.13404727 -0.128757 -0.21148632 -0.075308904 -0.15834445
-0.1402165 0.0016116867 -0.071263604 -0.06179912 0.075268894 -0.18964812 0.14097126 -0.015541237
-0.027951594 0.102941595 0.24854717 -0.06845274 -0.06755122 -0.21211337 -0.00062459626 0.004548454
0.01776386 -0.028461633 -0.11369449 -0.20229632 -0.03711985 -0.09439008 -0.076548986 -0.065505795
-0.1939871 0.056893457 -0.08142382 -0.06222722 -0.04335764 -0.13953578 -0.11950045 -0.13484651
-0.06434566 -0.23564705 -0.13232546 0.22873974 -0.09830491 -0.13370797 0.27140364 -0.09079435
0.23740353 -0.08496317 0.07558921 0.09558505 0.081419274 -0.12351325 -0.040950462 0.015274136
-0.1800438 -0.071740836 0.024995554 -0.08915323 0.019749507 0.266031 -0.018473176 -0.15818779
0.2768626 -0.15706103 0.12569521 -0.1698053 -0.15551852 -0.08568914 -0.18222077 -0.052315567
-0.21447305 -0.06539147 0.08461227 -0.0010577772 -0.15586984 -0.08359416 -0.16031495 0.04259977
-0.1272204 0.15510565 0.08068201 0.28229666 0.0807799 0.05650901 0.10364563 -0.07947614
0.06659457 0.1852258 -0.018000035 0.043695606 -0.042693354 0.13984066 0.2512859 0.024983527
