mnist_model/model_v3.pt (torch, 35445 bytes, 14 tensors)

weight f4 [8, 1, 3, 3]
0.425192 0.37554014 -0.08547268 -0.17751639 -0.15173747 -0.47429362 -0.6242059 -0.53107023
-0.05790491 0.05413013 0.48405278 0.27745286 -0.047887877 0.18361256 0.1941394 -0.6907912
-0.47752985 0.14465758 -0.62782055 0.005701599 0.214428 -0.39929143 0.16819188 0.34852472
-0.6085656 0.041699838 0.076538034 -0.5410945 -0.16040544 0.13602574 -0.12622139 0.61957914
0.38780513 0.22181144 0.092075415 -0.55709404 0.27551872 0.3264422 -0.18236995 0.27582952
0.09260007 -0.43097514 0.3995614 -0.1862454 -0.4248372 0.10983066 -0.37924215 -0.6102999
0.47408593 0.45980266 -0.14224583 -0.18256983 0.2978093 0.09395776 -0.22258441 -0.42855176
-0.12652372 -0.19499528 -0.11637209 0.19351035 0.10388756 0.569804 0.39313567 0.1947211
0.12927267 -0.120504595 0.2521144 0.34497523 0.16755253 -0.050559003 0.14935143 0.15024269
00000000: c4b2 d93e cc46 c03e 4d0c afbd dbc6 35be
00000010: 1161 1bbe 9dd6 f2be f5cb 1fbf 38f4 07bf
00000020: b32d 6dbd 8eb7 5d3d c4d5 f73e 4d0e 8e3e
00000030: 1426 44bd ee04 3c3e 7bcc 463e b1d7 30bf
00000040: cb7e f4be 1e21 143e d9b8 20bf 7bd4 ba3b
00000050: 0393 5b3e ed6f ccbe 7e3a 2c3e d571 b23e
00000060: f5ca 1bbf 73cd 2a3d f9bf 9c3d 2b85 0abf
00000070: 5341 24be 554a 0b3e 2e40 01be bd9c 1e3f
00000080: 658e c63e 8a22 633e 0992 bc3d b79d 0ebf
00000090: ca10 8d3e 6f23 a73e 30bf 3abe 8739 8d3e
000000a0: 1ba5 bd3d c6a8 dcbe 5093 cc3e 1db7 3ebe
000000b0: 4384 d9be e6ee e03d 072c c2be 9d3c 1cbf
000000c0: 64bb f23e 416b eb3e e4a8 11be 96f3 3abe
000000d0: 767a 983e ed6c c03d 2bed 63be 236b dbbe
000000e0: 6f8f 01be d8ac 47be 7e54 eebd 9427 463e
000000f0: 00c3 d43d adde 113f 1449 c93e f864 473e
00000100: 0e60 043e 1dcb f6bd 2315 813e 98a0 b03e
00000110: e492 2b3e f516 4fbd 95ef 183e 38d9 193e

bias f4 [8]
-2.953867e-06 4.587167e-06 9.881669e-06 -2.0338621e-07 -4.936544e-07 4.8180113e-06 6.500812e-07 -6.0147187e-07
00000000: 0c3b 46b6 77eb 9936 72c9 2537 6062 5ab4
00000010: ac83 04b5 67aa a136 3d81 2e35 d574 21b5

weight f4 [8]
1.3207861 0.9619564 1.1028538 0.90163827 0.9707689 0.9033249 0.7400283 0.40219948
00000000: 850f a93f c642 763f 502a 8d3f c4d1 663f
00000010: 5084 783f 4d40 673f 7f72 3d3f 17ed cd3e

bias f4 [8]
0.017234486 -0.5278396 -0.08734261 -0.84142673 -0.5877439 -0.3791508 -0.23893821 -0.5096501
00000000: 562f 8d3c 7f20 07bf afe0 b2bd be67 57bf
00000010: 6276 16bf 0e20 c2be 38ac 74be 6e78 02bf

running_mean f4 [8]
1.6969794 -0.15887982 1.0175459 -0.09441241 -0.18972793 -0.15793617 -0.22327478 -1.5869635
00000000: 9f36 d93f 64b1 22be f23e 823f 4b5b c1bd
00000010: 0a48 42be 05ba 21be 25a2 64be 9f21 cbbf

running_var f4 [8]
4.90286 2.3565493 3.3439355 1.1083963 2.5552177 1.4255409 2.3470051 2.3575323
00000000: 3be4 9c40 b4d1 1640 0a03 5640 eedf 8d3f
00000010: b088 2340 2078 b63f 5535 1640 cfe1 1640

weight f4 [16, 8, 3, 3]
-0.107157156 -0.10255695 -0.13518567 0.30585894 0.16871609 0.10686173 -0.1775752 0.018739427
0.1731176 0.04126009 0.3061981 0.105307326 0.011759837 0.1646985 0.31584594 -0.1229965
-0.07835324 0.0075474605 0.01069154 -0.09853007 -0.20493466 -0.10243267 -0.018753227 -0.000770132
0.04722824 -0.03984382 0.07352337 0.14696245 -0.16353813 -0.07998003 -0.102806 0.020991482
-0.015228125 -0.1080397 -0.21096733 -0.1358958 -0.04600111 -0.21146639 -0.0214241 0.12031151
-0.07267257 -0.1031428 0.08936599 -0.05997008 -0.05688987 0.16352272 0.08650446 0.09313906
-0.19619475 0.29647145 0.06971118 0.022513397 0.0026217436 -0.07418712 0.02629208 -0.28749827
-0.10832002 -0.052193172 0.00698232 0.04610463 -0.06277281 -0.16797854 -0.18192226 0.055189908
0.12589976 0.11164048 0.09917765 0.08382638 0.12574549 -0.0075395643 -0.08296151 -0.14401318
-0.25287056 -0.16768448 0.25589904 0.0002642382 -0.4352893 -0.31529894 0.022877852 -0.21772516
-0.38313723 0.26178017 -0.3666859 -0.040848844 0.47015738 0.32737768 -0.23761122 -0.11295479
0.1016338 0.16761015 -0.10840263 0.121823095 -0.0035383955 -0.050173666 0.13953698 0.25555918
0.04553955 0.25641578 0.14713354 0.007230593 0.11937991 0.4275837 -0.2734353 -0.19488233
0.00035101292 0.08565273 0.053200267 -0.22610803 0.13222623 0.19933842 0.14619435 -0.07381787
-0.13483986 -0.043149248 -0.09507271 0.0093149105 -0.26133808 0.079817526 0.18911868 -0.3062445
0.1287105 0.5027216 0.5504832 -0.038048204 -0.054999303 0.4751912 -0.35692015 -0.08780017
0.14378414 -0.37264642 -0.50183535 -0.07564104 0.17183226 -0.28684574 -0.041316237 0.13385837
-0.08263015 -0.3687051 -0.12415202 0.037740752 -0.035740282 -0.36900684 -0.22252841 0.03699794
-0.16300048 -0.029001644 -0.010620185 -0.3665813 -0.23698458 -0.048601497 0.10610912 0.2501605
0.027394108 -0.12597159 -0.05934571 -0.1068883 0.019367095 0.17484239 -0.17717013 -0.053290073
0.09169165 0.1553288 0.10511161 -0.11765227 -0.02352413 -0.14991517 -0.2858533 -0.23631862
-0.0961439 -0.14169294 -0.1583757 0.19447191 0.4519132 0.32568136 -0.07836373 -0.17061111
0.4883651 -0.017453197 -0.24437009 -0.14519837 0.24139442 0.24684848 -0.034570005 -0.11948244
-0.3155332 0.014700446 -0.10691083 -0.25675914 -0.039096 -0.23143409 0.0619736 -0.09388176
0.1687466 0.4303865 0.14762668 0.19821645 0.06186367 0.20086339 0.041068926 0.17049381
0.2048515 -0.25918484 0.015108824 0.3914927 -0.14977494 -0.16861863 0.026286935 0.019274466
-0.046997983 -0.15455876 0.17948017 0.21032336 0.04698914 0.022223026 -0.10505492 -0.028765205
-0.16800934 -0.11363423 0.21969913 0.12504262 -0.1549465 -0.059255045 -0.111846134 -0.44910675
0.051717672 -0.14393921 -0.37427503 -0.17985371 -0.5008703 -0.45257348 -0.048952017 -0.42343062
-0.32621786 0.06432667 0.04466592 0.40096074 -0.107158095 0.06484701 0.09318407 -0.104055114
0.14770207 0.0036169267 -0.26161003 0.24316622 0.28410167 0.23791263 0.43752807 0.18274017
0.05169442 0.011227008 0.019300748 -0.13879128 -0.12709399 0.17991908 0.24250235 0.18542041
00000000: 3675 dbbd 6109 d2bd 1d6e 0abe 8b99 9c3e
00000010: e9c3 2c3e 53da da3d 46d6 35be 6d83 993c
00000020: bd45 313e 5700 293d ffc5 9c3e 5eab d73d
00000030: 55ac 403c b9a6 283e 8fb6 a13e 97e5 fbbd
00000040: aa77 a0bd b050 f73b 922b 2f3c 22ca c9bd
00000050: 64da 51be 38c8 d1bd 5ea0 99bc afe2 49ba
00000060: 6672 413d 4633 23bd 6c93 963d 537d 163e
00000070: 8a76 27be 92cc a3bd f48b d2bd 54f6 ab3c
00000080: 637f 79bc eb43 ddbd d207 58be 4528 0bbe
00000090: a96b 3cbd a58a 58be 9881 afbc e265 f63d
000000a0: 5bd5 94bd 883c d3bd 8405 b73d 30a3 75bd
000000b0: 5a05 69bd 8072 273e 4029 b13d b1bf be3d
000000c0: 47e7 48be 1bcb 973e bcc4 8e3d 046e b83c
000000d0: 8fd1 2b3b 6bef 97bd 7d62 d73c f932 93be
000000e0: e3d6 ddbd 82c8 55bd f2cb e43b 35d8 3c3d
000000f0: 088f 80bd 9102 2cbe d449 3abe d00e 623d
00000100: deeb 003e c4a3 e43d a71d cb3d 2aad ab3d
00000110: 6dc3 003e 730e f7bb b9e7 a9bd 3178 13be
00000120: 4078 81be 7bb5 2bbe 3305 833e 7389 8a39
00000130: 3dde debe dd6e a1be 556a bb3c 58f3 5ebe
00000140: 902a c4be 0d08 863e 41be bbbe 1e51 27bd
00000150: 78b8 f03e 0c9e a73e 5b50 73be d754 e7bd
00000160: 6225 d03d ffa1 2b3e 3302 debd 637e f93d
00000170: 6de4 67bb e782 4dbd c8e2 0e3e a7d8 823e
00000180: ae87 3a3d ee48 833e 2daa 163e 9cee ec3b
00000190: 747d f43d 40ec da3e b6ff 8bbe 3c8f 47be
000001a0: 2808 b839 b36a af3d 86e8 593d dd88 67be
000001b0: 5066 073e 5f1f 4c3e f9b3 153e d32d 97bd
000001c0: 7613 0abe 44bd 30bd 7bb5 c2bd 919d 183c
000001d0: 1bce 85be 5f77 a33d 54a8 413e 14cc 9cbe
000001e0: afcc 033e 5db2 003f 78ec 0c3f 6fd8 1bbd
000001f0: f346 61bd 434c f33e 3dbe b6be 93d0 b3bd
00000200: 263c 133e 83cb bebe 4878 00bf b1e9 9abd
00000210: ccf4 2f3e 72dd 92be 373b 29bd 2b12 093e
00000220: ff39 a9bd eac6 bcbe 6a43 febd 0c96 1a3d
00000230: 6764 12bd 77ee bcbe 7dde 63be 278b 173d
00000240: 99e9 26be db94 edbc 4900 2ebc 8bb0 bbbe
00000250: 16ac 72be 5d12 47bd bd4f d93d 0915 803e
00000260: 9c69 e03c b2fe 00be 7d14 73bd 41e8 dabd
00000270: bea7 9e3c e209 333e 166c 35be b146 5abd
00000280: d5c8 bb3d 830e 1f3e c144 d73d acf3 f0bd
00000290: adb5 c0bc 5d83 19be 5d5b 92be 82fd 71be
000002a0: 18e7 c4bd f417 11be 3d2d 22be a523 473e
000002b0: 2b61 e73e b5bf a63e 2a7d a0bd aeb4 2ebe
000002c0: fe0a fa3e 02fa 8ebc 273c 7abe e2ae 14be
000002d0: 1930 773e d9c5 7c3e 4799 0dbd 36b3 f4bd
000002e0: 918d a1be 24da 703c 11f4 dabd ef75 83be
000002f0: 2123 20bd 0ffd 6cbe 08d8 7d3d 1545 c0bd
00000300: e9cb 2c3e 9f5b dc3e 732b 173e 41f9 4a3e
00000310: c264 7d3d 22af 4d3e e437 283d ee95 2e3e
00000320: 97c4 513e e0b3 84be 008b 773c bb71 c83e
00000330: 9a5e 19be 5daa 2cbe b357 d73c 7ce5 9d3c
00000340: f580 40bd a744 1ebe a6c9 373e 025f 573e
00000350: af77 403d 100d b63c 0927 d7bd 02a5 ebbc
00000360: a40a 2cbe 10b9 e8bd cff8 603e 2c0b 003e
00000370: 4caa 1ebe 6bb5 72bd 960f e5bd 52f1 e5be
00000380: e9d5 533d cd64 13be faa0 bfbe 922b 38be
00000390: 0939 00bf b6b7 e7be e981 48bd e6cb d8be
000003a0: 0706 a7be b3bd 833d 9df3 363d ba4a cd3e
000003b0: b475 dbbd 82ce 843d 4ad7 be3d d91a d5bd
000003c0: 363f 173e f609 6d3b c0f1 85be 9100 793e
000003d0: c675 913e 5e9f 733e ae03 e03e 3d20 3b3e
000003e0: 87bd 533d 7cf1 373c 9a1c 9e3c 4d1f 0ebe
000003f0: ed24 02be b53c 383e 8952 783e d9de 3d3e

bias f4 [16]
-2.407966e-07 2.204345e-06 4.6373447e-07 -1.7037847e-06 -1.2837453e-06 4.841131e-07 -5.79578e-07 -4.148132e-07
9.820765e-08 -9.8969494e-08 1.70731e-07 4.254929e-07 -6.2583985e-07 2.2192584e-07 6.3115056e-07 2.0987131e-06
00000000: d546 81b4 5cee 1336 2ef7 f834 99ad e4b5
00000010: 274d acb5 00f4 0135 4c94 1bb5 7eb3 deb4
00000020: 3ae6 d233 0e89 d4b3 2e52 3734 4d6f e434
00000030: 63ff 27b5 834a 6e34 566c 2935 9ed7 0c36

weight f4 [16]
0.7470042 1.0484512 0.93101764 1.2541821 0.78574425 1.023985 1.1178572 1.0533142
1.1279196 1.0333875 1.0830663 1.2488216 0.9935892 1.0392891 0.8307439 0.9156572
00000000: ab3b 3f3f a633 863f 2c57 6e3f 0a89 a03f
00000010: 8926 493f f111 833f f215 8f3f 00d3 863f
00000020: ab5f 903f 0b46 843f eba1 8a3f 63d9 9f3f
00000030: dd5b 7e3f 6d07 853f a2ab 543f 8368 6a3f

bias f4 [16]
-0.3543599 -0.7218368 -0.5306653 -0.40846413 -0.4701716 -0.48749116 -0.357986 -0.3881954
-0.24019863 -0.42123944 -0.6211648 -0.4314927 -0.31379378 -0.45980296 -0.24146959 -0.30961478
00000000: a96e b5be 4cca 38bf aed9 07bf 3622 d1be
00000010: 55ba f0be 7198 f9be f149 b7be 8cc1 c6be
00000020: a1f6 75be b2ac d7be a804 1fbf 9cec dcbe
00000030: 94a9 a0be 4b6b ebbe ce43 77be d485 9ebe

running_mean f4 [16]
-0.12451265 -0.5290597 -0.39902958 -0.7161299 -0.16972578 0.40462908 -0.4624296 -0.08169461
-0.7505038 0.9496786 -1.0290082 -0.23591459 -0.34387994 0.41287753 -0.24803992 0.19580862
00000000: 7d00 ffbd 7570 07bf 9b4d ccbe 4a54 37bf
00000010: 98cc 2dbe 8b2b cf3e 93c3 ecbe 814f a7bd
00000020: 0421 40bf 231e 733f 8ab6 83bf 9893 71be
00000030: 0811 b0be af64 d33e 2dfe 7dbe 0e82 483e

running_var f4 [16]
0.9677223 1.9326131 1.3487743 2.7203689 1.4216498 1.6667525 1.9556545 2.1446056
2.6302726 2.0686648 2.1953893 2.2656116 1.8160329 2.3297687 1.2050769 1.0918064
00000000: a6bc 773f de5f f73f a3a4 ac3f 861a 2e40
00000010: 9ff8 b53f 2558 d53f e352 fa3f 3841 0940
00000020: 6356 2840 0165 0440 4281 0c40 c8ff 1040
00000030: c473 e83f ee1a 1540 f63f 9a3f 50c0 8b3f

weight f4 [10, 576]
0.011027995 0.003009832 0.0037677132 -0.0064423676 0.012210305 -0.0023945407 -0.0023561094 -0.103634104
-0.05653229 0.0051097637 -0.053129822 -0.05253627 -0.003872716 -0.030437136 0.14107324 0.03550495
-0.107196175 -0.03477085 -0.049116924 -0.025192037 -0.0064398553 -0.098464034 -0.050603192 -0.02559921
-0.034868155 0.14460802 0.09777688 -0.055000193 0.047773823 0.007452987 -0.0155690815 0.005756098
0.13897951 0.11731808 -0.033006545 -0.059748642 -0.003950917 -0.109411426 0.09295161 0.08219908
-0.03200239 -0.0069858185 -0.05910875 -0.042726304 -0.113204874 0.08503637 0.10755497 0.2938024
0.04356518 -0.120149836 -0.040398806 0.1742067 0.32431516 0.32774594 -0.04566896 0.13034588
0.051184516 -0.10752521 0.058975656 0.17187802 0.04341075 -0.027350904 0.13873911 -0.012316469
-0.2997056 -0.0629213 0.058786478 0.04313565 0.19033818 -0.025390884 -0.3590303 -0.23386951
-0.000106906395 -0.061019823 -0.110357314 -0.056061078 0.14091608 0.07869832 -0.06234933 -0.051502336
-0.052734822 0.06988348 0.03061949 0.16644157 0.007972105 -0.14443226 -0.16237007 -0.17835946
0.064807326 0.15930381 0.01964945 0.017833207 -0.11508575 -0.23649253 -0.34015775 -0.1167176
0.06844781 0.07219915 0.071136 0.04624238 -0.041261904 -0.2900018 -0.116264306 0.0865063
0.09077983 0.21927097 0.008718149 -0.04719172 -0.0010605963 -0.024577552 -0.21527137 -0.1610709
-0.2077138 -0.06679375 -0.032423638 -0.06116302 0.064705424 -0.02899306 -0.07064678 -0.12334201
-0.0054578464 0.06417301 0.01984845 0.036778428 -0.24344088 0.1338138 -0.05506419 0.18273261
0.11093988 -0.22306111 0.18735509 0.24938878 0.078669414 0.24102992 0.13153912 0.1469633
0.24160169 0.12861924 -0.030738115 -0.0063638855 -0.24202082 0.060931314 -0.035715878 -0.05985272
-0.0061375676 0.028966494 -0.020197542 0.18179333 0.09309478 -0.013115964 -0.007208983 -0.014276568
-0.022321494 -0.18593967 0.05788864 0.057935163 0.011609013 0.13756177 -0.18083353 0.01741518
-0.26907063 -0.12283125 -0.06122291 0.0770919 0.12844732 -0.08854374 -0.18248168 0.1490018
0.11161206 -0.020167315 -0.25111812 0.035156332 0.04465759 0.045237083 0.0064960546 -0.056703653
0.004925096 -0.025439883 0.07260326 0.0380779 0.047123443 0.08941838 0.028124437 0.09188138
0.0061744004 0.0047930237 0.013156605 -0.028317604 -0.05720487 -0.091014676 -0.15274955 -0.048782695
0.006447059 -0.01665444 -0.11721431 -0.27980378 -0.4082368 0.002576826 -0.012464494 -0.1451858
-0.32605007 0.13637115 0.018120809 -0.27879712 0.038560204 -0.24175397 -0.20508726 -0.10231737
-0.06061446 -0.060030658 0.016028184 -0.014749364 0.027664982 0.02085839 -0.0060391836 -0.06678711
-0.005924651 0.036064986 -0.0033677767 -0.06122146 0.020999234 -0.0074969335 0.20363149 -0.051877864
0.123366416 0.059099317 -0.055329166 -0.06015972 0.073456176 0.18462582 0.11371937 -0.41551563
-0.30811054 0.1425413 0.027892055 -0.07287115 -0.17643817 -0.04772674 0.09468297 0.02562054
-0.003452931 -0.4035734 -0.24684933 -0.0656495 0.08323142 -0.0791264 -0.054459613 -0.40311092
-0.40384218 -0.0607985 0.0066859243 -0.012131089 -0.008401853 -0.083518706 -0.02761867 -0.08849612
00000000: c3ae 343c 9a40 453b bdeb 763b 7f1a d3bb
00000010: bb0d 483c baed 1cbb f568 1abb 1e3e d4bd
00000020: 678e 67bd ce6f a73b a89e 59bd 4630 57bd
00000030: 65cd 7dbb 4d57 f9bc 8175 103e a36d 113d
00000040: ab89 dbbd e16b 0ebd d42e 49bd 885f cebc
00000050: 6c05 d3bb 83a7 c9bd 4b45 4fbd 6fb5 d1bc
00000060: e9d1 0ebd 2014 143e 3f3f c83d e247 61bd
00000070: 7cae 433d 3038 f43b 7615 7fbc a69d bc3b
00000080: a550 0e3e 7644 f03d df31 07bd feba 74bd
00000090: b276 81bb 1913 e0bd 6a5d be3d fe57 a83d
000000a0: f014 03bd 4be9 e4bb 041c 72bd c701 2fbd
000000b0: f5d7 e7bd 8c27 ae3d c845 dc3d 456d 963e
000000c0: 6771 323d 1e11 f6bd 3879 25bd 3e63 323e
000000d0: a30c a63e 51ce a73e 600f 3bbd 6479 053e
000000e0: dba6 513d 2d36 dcbd 7590 713d cb00 303e
000000f0: 78cf 313d 010f e0bc a011 0e3e 04cb 49bc
00000100: 0373 99be e2dc 80bd 17ca 703d 02af 303d
00000110: 03e8 423e 8b00 d0bc d2d2 b7be 7d7b 6fbe
00000120: ef32 e0b8 ecef 79bd 0403 e2bd 4da0 65bd
00000130: 4e4c 103e 962c a13d 0362 7fbd 1df4 52bd
00000140: 7800 58bd 121f 8f3d bad5 fa3c a96f 2a3e
00000150: 6f9d 023c 0de6 13be 5744 26be dda3 36be
00000160: b4b9 843d 8a20 233e e2f7 a03c f216 923c
00000170: 14b2 ebbd 192b 72be 2829 aebe a309 efbd
00000180: 5e2e 8c3d 26dd 933d c0af 913d a668 3d3d
00000190: 3e02 29bd 1e7b 94be fb1b eebd 372a b13d
000001a0: c7ea b93d 9288 603e 91d6 0e3c 1b4c 41bd
000001b0: b503 8bba dd56 c9bc 1970 5cbe c5ef 24be
000001c0: edb2 54be 29cb 88bd a6ce 04bd 1386 7abd
000001d0: 4784 843d db82 edbc 42af 90bd bc9a fcbd
000001e0: bcd7 b2bb 246d 833d 3799 a23c faa4 163d
000001f0: 9148 79be 7c06 093e fd8a 61bd 421e 3b3e
00000200: 7334 e33d 226a 64be 03da 3f3e c65f 7f3e
00000210: 6e1d a13d 8cd0 763e 31b2 063e 8c7d 163e
00000220: 6f66 773e c3b4 033e 80ce fbbc 2488 d0bb
00000230: 4ed4 77be 1d93 793d d04a 12bd 2028 75bd
00000240: a61d c9bb 244b ed3c 5175 a5bc 0828 3a3e
00000250: 7aa8 be3d 57e4 56bc 5539 ecbb 44e8 69bc
00000260: 91db b6bc f866 3ebe a31c 6d3d 6c4d 6d3d
00000270: bb33 3e3c fedc 0c3e 6d2c 39be 48aa 8e3c
00000280: a0c3 89be f38e fbbd e0c4 7abd 5ce2 9d3d
00000290: b287 033e 6c56 b5bd 7adc 3abe ee93 183e
000002a0: dd94 e43d ed35 a5bc 8e92 80be 1600 103d
000002b0: e1ea 363d 854a 393d dbdc d43b 1742 68bd
000002c0: b362 a13b 4d67 d0bc 05b1 943d 92f7 1b3d
000002d0: 8304 413d fc20 b73d 3865 e63c 4e2c bc3d
000002e0: a052 ca3b cc0e 9d3b cd8e 573c 52fa e7bc
000002f0: a74f 6abd e765 babd 616a 1cbe 5dd0 47bd
00000300: da41 d33b e46e 88bc 0e0e f0bd 7142 8fbe
00000310: 6a04 d1be f7df 283b e137 4cbc 96ab 14be
00000320: 09f0 a6be e1a4 0b3e 1772 943c 7fbe 8ebe
00000330: 4ef1 1d3d 5a8e 77be 6502 52be c58b d1bd
00000340: de46 78bd b5e2 75bd 8a4d 833c 51a7 71bc
00000350: aca1 e23c 37df aa3c 58e4 c5bb aec7 88bd
00000360: 9323 c2bb e1b8 133d ebb5 5cbb 5bc3 7abd
00000370: 9606 ac3c d6a8 f5bb c684 503e e27d 54bd
00000380: 88a7 fc3d 2012 723d d6a0 62bd 0a6a 76bd
00000390: 3170 963d 8d0e 3d3e b3e5 e83d 77be d4be
000003a0: aac0 9dbe 59f6 113e e17d e43c 783d 95bd
000003b0: 35ac 34be 1d7d 43bd 25e9 c13d 2be2 d13c
000003c0: 924a 62bb 2ca1 cebe 12c6 7cbe 3f73 86bd
000003d0: 3c75 aa3d 060d a2bd 0b11 5fbd 8e64 cebe
000003e0: 67c4 cebe d907 79bd 9915 db3b 7ac1 46bc
000003f0: eda7 09bc db0b abbd 8d40 e2bc 743d b5bd

bias f4 [10]
0.036908884 0.23714429 0.08399743 -0.09454691 -0.081212796 0.05477831 -0.07192585 0.039877392
-0.101961814 -0.059019078
00000000: c52d 173d f4d5 723e d806 ac3d cfa1 c1bd
00000010: e552 a6bd 395f 603d dc4d 93bd 7a56 233d
00000020: 5bd1 d0bd fdbd 71bd
